bias_IW.npy (npy, 568 bytes, 1 tensors)

array f8 [55]
00000000: 6116 ec1c 894f 0740 f8b2 610b 49ff 2340
00000010: 44c8 882a 4d45 21c0 7981 b058 658c f93f
00000020: fcb7 2839 7ba5 ecbf af71 4749 5984 2540
00000030: cf23 7407 198b 08c0 1341 f53f 5bab 09c0
00000040: 53e1 9545 dd5e 05c0 619e 3afb 6f36 01c0
00000050: f39d a468 011c 0a40 928b f704 0563 2bc0
00000060: 1514 edc7 79e5 24c0 d110 3f13 227f e83f
00000070: 8d50 7878 ebd4 18c0 fb52 2119 d0e9 02c0
00000080: f490 384a afe4 bd3f 9bfc c09c 731c 1540
00000090: 19a3 a38c 2086 1dc0 c22d 0b65 6230 1240
000000a0: 9527 a3d9 5b95 1f40 0f7e 241d cc91 2640
000000b0: 559d dd73 c3cf 0640 783f 3414 f313 1940
000000c0: b40d d9c9 ab0e 13c0 6da6 c674 b672 1ac0
000000d0: 579b 7b1f 7979 25c0 6c92 f929 892e 07c0
000000e0: 669f 55d3 e665 0840 05fa d701 f622 a2bf
000000f0: f9eb a1bf c870 2440 c7f0 3641 6401 0440
00000100: fd07 7c71 eea6 1440 aaea ede8 e287 0f40
00000110: fbf5 1fa6 38dd 1940 0772 3725 acf5 30c0
00000120: 34e0 87de 3d35 25c0 2463 52cf c4ec 07c0
00000130: e2ab 649a c518 0040 1ef9 eb64 5c2a 16c0
00000140: c321 86e3 1a21 2640 945c c3e1 0cb7 0440
00000150: 9674 39ca 6665 1ec0 9c5d dd02 2066 cdbf
00000160: 0c41 48f5 2170 f6bf d79d 05d9 6682 0ec0
00000170: f3c0 1b60 53d8 eabf 5dfb c05d 0fb3 19c0
00000180: da90 c63b 9cdf 1740 6550 598c 3b9f 1bc0
00000190: 82ac 1e65 0169 703f 42d8 511e dbd7 ef3f
000001a0: e85c 45d7 6904 1440 e3df 5dea c468 1d40
000001b0: 072b ca7c 72ea f83f
2.913835741 9.99860416 -8.635354356 1.596776339 -0.895200359 10.7584937 -3.067918833 -3.208670139
-2.67132048 -2.151580775 3.263674562 -13.69339767 -10.44819474 0.765519178 -6.207929499 -2.364166447
0.116770702 5.277784776 -7.380983541 4.547250346 7.895858193 11.28476039 2.851447015 6.26948196
-4.764327196 -6.61202414 -10.73725222 -2.897722557 3.049756671 -0.035422981 10.22028159 2.500679502
5.163018964 3.941350765 6.466036411 -16.95965798 -10.60398765 -2.99060976 2.012095648 -5.541368081
11.06465827 2.589380039 -7.599024925 -0.229679109 -1.402376135 -3.813672729 -0.838906944 -6.424863305
5.968369421 -6.905500596 0.004006391 0.995099601 5.004310001 7.352313673 1.55723809
